CI_DRL_v2/pg_drl_model_best.pth (torch, 79596 bytes, 6 tensors)

net.0.weight f4 [128, 15]
000000 5e 29 13 3e 1c 21 22 3e 58 b0 eb ba 99 c1 df 3e
       0.14371249 0.15832943 -0.0017981632 0.4370239
000010 ca bf bc bd 6c 43 18 3d 2e 68 46 bd 53 66 bc 3d
       -0.09216268 0.037173674 -0.048439197 0.09199204
000020 93 c3 c2 3e 8c 4a 93 be 30 52 22 3e 1c f5 8a 3c
       0.38039836 -0.28767812 0.15851665 0.01696258
000030 43 98 0b 3e c5 35 a5 3d cd 5f b3 3d c2 8f b5 bd
       0.13632302 0.08066896 0.08758507 -0.0886531
000040 84 d7 63 3e 85 6e 84 3b 58 60 5d bd 95 f6 07 3e
       0.22250181 0.0040414953 -0.05404696 0.13277657
000050 7d 1f 2a be 06 22 95 bd 67 de 02 be 91 a5 46 3e
       -0.16613574 -0.0728188 -0.12780152 0.19399096
000060 61 a4 82 be 88 8e 1a be 5d b9 95 bd 86 be 20 be
       -0.25516036 -0.15093434 -0.07310746 -0.15697679
000070 54 6e 9c 3d 49 a8 62 be 95 11 6c 3e 39 d9 85 be
       0.07638231 -0.22134508 0.23053582 -0.2614229
000080 70 6f b5 3e f7 71 e0 3d 4f be 31 be 71 78 4f 3e
       0.35436583 0.10959237 -0.17357753 0.20260789
000090 6e 49 07 3c 61 28 88 3e f4 ef 6b bd 5d 64 2c be
       0.008257253 0.26593307 -0.057601884 -0.1683516
0000a0 33 2c f1 3d 4a c8 9b 3c 06 52 f8 3c 3a 16 65 3e
       0.117760085 0.019016404 0.03031255 0.2237176
0000b0 a9 8a 3a 3e 6a 2a 1e be 3a 7b f9 3d 97 6c 73 3d
       0.18216957 -0.15445867 0.12181707 0.05942973
0000c0 8b bf 9b 3e 62 d7 5d be f3 54 74 be 15 7e 9e bd
       0.30419573 -0.21664193 -0.2386053 -0.07738892
0000d0 47 e5 68 be 41 31 af 3e 53 5b 43 3d 2f 48 21 3d
       -0.22743712 0.34217265 0.047694515 0.03937548
0000e0 b2 5f af 3d 0b bb 1e bc d9 6b bf 3d 18 ea 80 be
       0.08563174 -0.009688149 0.09346742 -0.251786
0000f0 c6 e6 f2 bc 7e 09 11 be 52 b8 b1 3d b9 0c 5d be
       -0.029651057 -0.14163777 0.086777344 -0.21586885
000100 12 9c 11 3e 24 f6 98 bb 1b ce 85 3e 39 da 63 be
       0.14219692 -0.004668014 0.26133808 -0.22251214
000110 88 81 4a be c3 a6 34 be 10 12 83 3e 82 af e6 3d
       -0.19775975 -0.1764174 0.25599718 0.11263944
000120 be 9c 9f 3e a8 72 46 be 51 43 73 be b6 c3 74 be
       0.31174272 -0.19379675 -0.23756148 -0.23902783
000130 d3 ca 3e be e4 7d 2a 3e c3 26 91 bc 64 fa e2 3e
       -0.18632059 0.16649586 -0.017718678 0.44331658
000140 a2 cb c4 bd c4 ae af bd 2d d3 7d 3e 80 2b 2a be
       -0.096091524 -0.08578256 0.24787588 -0.16618156
000150 b0 12 16 3e 05 8c 81 bd 0b 29 10 3e 69 71 51 be
       0.14655566 -0.06325535 0.14078157 -0.20453419
000160 07 5d e3 bd bb a5 b6 3d 2d e1 08 3e c7 59 a7 bd
       -0.11101728 0.08918329 0.13367148 -0.081714205
000170 97 71 98 3e af 48 96 3e 65 11 89 be 8f b4 6d bd
       0.29774162 0.29352328 -0.26771083 -0.058033522
000180 48 71 6f 3e 63 f1 98 bc 1b a3 ef bc a8 8b 9b be
       0.23383057 -0.01866979 -0.02925258 -0.30379987
000190 71 68 d7 bd 44 64 5c 3c 31 6c 98 bd ba bf 74 be
       -0.105179675 0.01345164 -0.07442511 -0.23901263
0001a0 f7 d2 33 bd fc 86 14 be 53 dd 3e be 13 15 29 be
       -0.043902364 -0.14504617 -0.18639116 -0.16511945
0001b0 a6 a4 b1 be fe a4 91 be bc bc 82 3e c6 66 22 3d
       -0.3469593 -0.28446192 0.25534618 0.039648794
0001c0 f3 fd 4d 3e 0a 5d 99 be 7e 0e 20 be c3 fc 21 be
       0.20116405 -0.29953796 -0.15630528 -0.15819077
0001d0 61 72 b7 bc 43 95 5d be 8f 51 2a be 6a 90 39 be
       -0.022393407 -0.2163897 -0.16632675 -0.18121496
0001e0 ba 91 c2 bd 02 63 f0 bc ea cb e4 bd 64 ae 4a be
       -0.095004514 -0.029344086 -0.11171706 -0.19793087
0001f0 72 44 56 be 75 11 6e be 77 08 92 bd 76 36 95 be
       -0.20924547 -0.23248847 -0.07130521 -0.29143113
000200 c8 98 35 3e c8 3f 3a bd 45 69 71 3e 28 63 e8 3d
       0.17734063 -0.045470983 0.23575313 0.113470376
000210 83 6e 67 be c6 63 80 3e e1 ac ea bb 86 2e 02 be
       -0.2260075 0.2507612 -0.007161722 -0.1271306
000220 1b 2c de bd b2 72 b9 be 0e 49 1e 3e ae f0 5c be
       -0.10848256 -0.36220318 0.15457556 -0.21576187
000230 c7 ac c1 3d 5b 04 32 be 06 6a 99 3e 7f a2 74 be
       0.09456783 -0.17384474 0.29963702 -0.23890112
000240 9f 6c 32 3d 9c 09 b3 bc d7 da d3 3d 55 a0 43 3e
       0.04356062 -0.021855168 0.10344475 0.1910413
000250 d8 37 47 3e 57 30 55 be 23 0c ce 3c 2c c5 e4 bd
       0.19454896 -0.20819221 0.025152272 -0.1117042
000260 32 32 66 3d 93 b4 bf be 9c 7c b0 3e 10 ba 4c bd
       0.056200214 -0.37442455 0.3447007 -0.04998213
000270 25 21 ea 3d 5c 1e 1b 3e ee 98 01 3c 43 40 d5 bd
       0.11432103 0.151483 0.007909996 -0.104126476
000280 9b b1 58 3e 23 1f 04 3d c1 58 bd 3b c7 1a 27 be
       0.21161501 0.032256257 0.0057784026 -0.16318808
000290 1c f2 04 3e df 6e c8 bd eb f4 92 bd e8 35 be 3e
       0.12982982 -0.09786772 -0.07175621 0.37150502
0002a0 88 2d a2 3d cc 23 82 be de 3f dc bd 8d fb b3 bc
       0.07918841 -0.25417936 -0.10754369 -0.021970535
0002b0 7a da 52 3e 90 15 2c be 00 26 10 be b1 20 45 bd
       0.20591155 -0.168051 -0.14076996 -0.04812688
0002c0 2e 8e 66 be d3 70 ee 3d 09 47 51 3e 51 01 8d be
       -0.22515175 0.11642613 0.20437254 -0.27540067
0002d0 e6 75 4a bc 89 fd 09 3e b9 d6 cf 3d 7f b0 88 be
       -0.012357211 0.13475622 0.10148377 -0.26697156
0002e0 5f 3e 81 3e 22 43 45 3e 19 f3 e4 3d da 41 f5 bc
       0.25242898 0.1926389 0.1117918 -0.029938627
0002f0 c5 ef bb bd 7e 06 50 3d 32 2f 9b 3c f8 7e 9f bd
       -0.09176592 0.05078744 0.018943403 -0.07787889
000300 54 21 29 3e 50 e3 70 3e c3 ac bb bd 1a 61 25 bd
       0.1651662 0.23524213 -0.09163811 -0.040375806
000310 7c 2d f6 3b e6 3c 40 bd 01 97 55 3e 14 09 67 bd
       0.0075127464 -0.046933077 0.20858385 -0.056405142
000320 05 43 5e be aa 1e 15 be 81 ce 83 3e 0e 8c 1d 3e
       -0.21705253 -0.14562479 0.25743487 0.15385458
000330 96 f9 f2 bc 57 68 46 be e9 74 fe bd dd 8a 61 be
       -0.029660027 -0.1937574 -0.124246426 -0.22025628
000340 98 6f 00 be 92 d3 63 3c c8 66 10 3e c0 db 28 3e
       -0.1254257 0.013905423 0.14101708 0.16490078
000350 e8 8c a1 be 0e 96 2f be 8e 91 44 be 55 7b a0 3e
       -0.31552815 -0.17147085 -0.1919615 0.31344095
000360 ac 56 2f 3d ba d8 14 be 0d 78 da 3d 82 e9 05 be
       0.042807266 -0.145358 0.10667429 -0.13077357
000370 68 15 89 bd 55 ed 86 3e 87 52 e0 bd dd ad 1b bd
       -0.06693536 0.26352945 -0.10953241 -0.038007606
000380 0a 48 b6 be 94 29 24 3e 98 f5 55 3e 1b 04 de 3d
       -0.35601836 0.16031486 0.20894468 0.10840627
000390 ed 71 a5 be e3 b8 b8 be e1 84 3b be 17 2f 39 3e
       -0.3231348 -0.36078557 -0.18312408 0.1808437
0003a0 6c 9e 61 3e 84 09 15 3e ef b8 db 3d b6 ea 1d bb
       0.2203309 0.14554411 0.10728633 -0.0024096197
0003b0 85 51 89 bd c8 b7 2b be c3 c9 3e be 77 90 4d be
       -0.06705002 -0.16769326 -0.18631653 -0.2007464
0003c0 e3 64 57 3e b4 9e 20 be 0a ad 02 be 37 ed 91 be
       0.21034579 -0.1568554 -0.12761322 -0.28501293
0003d0 63 75 3e bc 53 10 33 be 49 3c 7b be cf 10 1c 3e
       -0.011624667 -0.17486696 -0.24534716 0.15240787
0003e0 ef f4 d1 bd 4d bb 04 3e ea 8e 36 be ac 97 37 be
       -0.102517955 0.12962075 -0.17827955 -0.17928952
0003f0 e5 5c 17 3d b4 31 18 be a4 a9 81 bd 33 45 b7 be
       0.036953826 -0.1486271 -0.063311845 -0.35794982

net.0.bias f4 [128]
000000 a8 71 af bd 9a e5 dd bd 9d 15 83 3c 4c 80 94 3d
       -0.085666 -0.10834809 0.016001517 0.07251033
000010 84 2e 6c 3e 64 b5 b0 3d 66 aa 39 3e 8b d2 79 3c
       0.2306462 0.086283475 0.18131408 0.015247951
000020 27 29 47 3e d9 d3 91 3e 05 aa e7 bd 3f 2f 17 3c
       0.19449292 0.2848194 -0.113117255 0.009227573
000030 16 d0 cd bd 72 a7 6c 3e 7f d2 25 be 1a 31 66 bd
       -0.10049455 0.2311075 -0.16193579 -0.05619917
000040 8d d9 c1 3e 42 a7 3c be 9b 31 8a 3e 05 09 cb 3d
       0.3786129 -0.18423179 0.2699097 0.0991383
000050 8e 2a ab 3e c3 4d a4 bd b0 6b 81 3e 30 42 0e 3e
       0.33430904 -0.08022644 0.25277472 0.13892436
000060 96 51 56 3d 80 da 55 3e 94 14 45 be f7 ee ec bd
       0.0523239 0.20884132 -0.19246131 -0.115690164
000070 bc 1d 9e 3e 12 8b 41 be cf 11 a4 bd ee d1 e9 3d
       0.3088206 -0.18900707 -0.08011209 0.11416994
000080 02 c5 fa bb ec a4 0c 3d 1e 3f 11 be d6 18 2d 3e
       -0.0076528797 0.03433697 -0.14184234 0.16904005
000090 a1 77 21 be 26 17 05 3e c8 56 81 3e d9 c5 0d 3e
       -0.15768291 0.12997112 0.2526152 0.13845004
0000a0 fa 41 14 3e 38 b5 2a 3e 3c 54 48 bd 55 65 9a 3c
       0.14478293 0.16670692 -0.048908457 0.018847147
0000b0 6a 5b 1a bd dc 49 73 bd 09 97 53 bd d7 1a af 3e
       -0.037684835 -0.05939661 -0.05165771 0.34200165
0000c0 7e c8 2d 3d 89 8a 28 3e 9e 06 9a 3e 59 de 94 3d
       0.042427532 0.16459097 0.30083174 0.07268972
0000d0 99 98 ac bc 57 c7 b6 bd 9c ae ef bb 5a 86 72 3e
       -0.021068858 -0.0892474 -0.007314516 0.23684064
0000e0 8b d1 c5 bd 52 c9 47 3d 69 2b 51 3e 0e f6 9e 3e
       -0.09659108 0.04877598 0.20426716 0.310471
0000f0 65 10 c9 3d 5b d5 c6 3d 08 fa 75 3e ff 01 7a 3e
       0.0981758 0.09708663 0.2402116 0.24414824
000100 8e d1 83 3e f2 13 4b bb 47 ad 12 be fe b2 34 3c
       0.25745815 -0.003098723 -0.14323913 0.011029003
000110 cc 2f 90 3c 5b 07 bf 3d 5e 46 83 3d fb ff 03 3e
       0.017600916 0.09327575 0.06409906 0.12890618
000120 fe f2 96 3e e0 02 3f bd d6 57 d7 bd 94 5d 03 be
       0.29482263 -0.0466336 -0.105148 -0.12828666
000130 8a cf 16 bd ec 68 2c 3e 20 0f bc bd e6 0c 48 3d
       -0.03681902 0.168369 -0.09182572 0.048840426
000140 1c 16 e9 3c 86 0a b4 bd 1a b2 15 3e 24 ee 99 bd
       0.028452925 -0.0879107 0.14618722 -0.07516125
000150 06 c0 b5 3d 17 9b 33 be 24 68 27 3d 7e e5 11 3e
       0.08874516 -0.17539631 0.0408708 0.142477
000160 cd 60 9e 3d 7b 73 d8 bc dd 0b 52 3e 49 2c 29 bd
       0.07733307 -0.026422253 0.20512338 -0.041302
000170 5c 25 a1 bb 18 a5 c1 bd 9e b7 a9 3d ec 75 08 be
       -0.0049177837 -0.09455317 0.08286975 -0.13326234
000180 32 5e 9d 3e 42 c0 eb bc 46 03 91 bc 45 45 91 3d
       0.30735928 -0.0287782 -0.017701756 0.0709329
000190 d3 c4 aa 3d 08 99 60 3d fb 55 58 3e 71 09 72 bd
       0.083383225 0.054833442 0.21126549 -0.059091035
0001a0 07 9d 0e 3e 55 22 a5 3d 51 f9 03 be 2e 12 86 bc
       0.13927089 0.08063189 -0.12888075 -0.01636609
0001b0 83 1c 9c 3d 5c 45 be 3d c6 bc 92 3e 06 fe 8c 3e
       0.07622626 0.09290573 0.28659648 0.27537555
0001c0 4e 76 de bd 98 78 2c bd c4 c0 15 3d 20 b5 f2 bd
       -0.108624086 -0.042107195 0.03656079 -0.11850953
0001d0 24 02 13 bd 77 c0 2d be be e2 4a 3e 51 fe 67 3e
       -0.035890713 -0.16967951 0.19813058 0.22655608
0001e0 b3 aa cf 3d f0 be a5 bd f8 45 89 bd 41 71 52 bd
       0.1013998 -0.08093059 -0.067027986 -0.05137754
0001f0 20 61 0c 3e c1 97 96 3d 4e 39 c7 3c 24 15 c9 3e
       0.13708925 0.073531635 0.024319317 0.39273942

net.2.weight f4 [128, 128]
000000 77 05 9e 3d 49 a9 54 3d 37 b8 c9 bd 5c 43 a9 3d
       0.07715886 0.051919255 -0.09849589 0.08264801
000010 42 7d 8d 3d 51 57 1a bd cc d5 cd bd b8 b9 51 bd
       0.06908657 -0.037680928 -0.10050544 -0.051202506
000020 90 3e a7 3d 03 1a 0b 3d 14 bb 81 3c ac 4c 0d be
       0.0816623 0.033960354 0.015836276 -0.13798779
000030 4d 2a 99 3d bc e2 b3 3c bc 78 0e 3d f6 4f 80 bd
       0.07478771 0.021958701 0.03478311 -0.06265251
000040 46 d7 84 3d 30 33 a9 bc 25 a9 e0 3d 27 37 01 be
       0.06486373 -0.02065429 0.10969762 -0.12618695
000050 5a d6 49 38 c8 4a 8c bb 65 00 77 bb 51 87 85 3d
       4.8121765e-05 -0.0042813756 -0.0037689444 0.0651995
000060 8f 5d c9 bc e3 ee 8e 3d d8 85 93 3c a2 5b 20 bb
       -0.024580745 0.06979158 0.018008158 -0.002446868
000070 96 4b cd 3d 85 f7 62 3d 04 a5 c7 3c 95 84 52 3d
       0.100241825 0.055411834 0.024370678 0.05139597
000080 73 54 92 3c f1 61 7a bc 93 db 0a bb ee 50 cf bb
       0.017862534 -0.01528214 -0.0021188005 -0.0063267862
000090 cf 10 a2 3d c3 bd 05 3e 22 21 1f bb 9c 1e 31 bc
       0.07913362 0.1306067 -0.0024281223 -0.0108105205
0000a0 ef 6c 01 3e 4f 24 8a 3c 9b 78 49 bc e1 ca 4d bd
       0.12639211 0.016863016 -0.012296821 -0.05024231
0000b0 6c ba dc 3d b5 a2 f1 3d 59 d1 b3 bd ec ee ac bc
       0.10777745 0.11798612 -0.08780164 -0.02111002
0000c0 32 a0 17 bd 85 71 6e 3d e9 4b 44 3d 80 40 28 bb
       -0.03701801 0.05821373 0.047923956 -0.002567321
0000d0 62 ef 95 3b 14 3e 8b 3d 0c 3d e9 3c 12 f1 35 bd
       0.004575656 0.0679895 0.028471492 -0.044419356
0000e0 d5 fa bd bc d2 83 aa 3c ca 40 f8 3a 61 7f 0e 3e
       -0.023190895 0.02081481 0.0018940207 0.13915779
0000f0 c5 89 7e bd a2 d7 f9 3b 0b 47 a5 3d 14 d2 31 3d
       -0.062143106 0.0076245824 0.08070191 0.043413237
000100 85 8c 91 3c 59 e3 b7 3d 39 6a 18 3e 9f e5 a2 3d
       0.0177672 0.0897891 0.1488427 0.07953953
000110 df ee f9 3d 0a 04 ad 3d 1a 14 67 3d 39 a3 96 3d
       0.12203764 0.08448036 0.056415655 0.07355351
000120 d3 fb a0 3c 8c 54 2e 3d ac 50 d7 3d 77 83 5b 3d
       0.01965133 0.0425611 0.10513434 0.05359217
000130 2c 88 10 3d 7c a1 7e 3d e5 e4 11 3e 00 b5 ef bd
       0.035286114 0.062165722 0.14247473 -0.11704445
000140 4d d6 f7 3d 0d 88 86 bc 5e 87 eb 3d 90 06 d1 bc
       0.121014215 -0.016422296 0.115004286 -0.025515825
000150 2e 8d 22 bc 26 36 aa 3d 30 a8 dc 3c 7f 13 db bb
       -0.009921355 0.08311109 0.026935667 -0.0066856737
000160 f3 25 51 3b 4c c5 fb bc 77 71 5f 3d 0f 8e 97 bc
       0.0031913489 -0.030733727 0.054551568 -0.018500356
000170 61 ab dd 3d 4f 05 2a be 9d 02 8b bc b0 25 8a 3d
       0.108237036 -0.16603588 -0.01696902 0.067454696
000180 6c 75 d2 3a 0c f7 55 3d 22 b7 ae 3b a1 e0 f3 3b
       0.0016056723 0.052237555 0.0053318897 0.0074425493
000190 a0 d6 00 3e 2a c8 1f 3d 6e ef 95 bc 51 5a 19 be
       0.12581873 0.03900925 -0.018302646 -0.14975859
0001a0 78 6f 99 bd 3c 11 a7 bc be f4 21 3e 3d 5c 0c 3e
       -0.07491964 -0.02039396 0.15816018 0.13707061
0001b0 44 06 db 3d 43 97 fd 3d 95 d1 ca ba 8a 4f 35 bd
       0.106945544 0.123823665 -0.0015473837 -0.044265307
0001c0 46 a3 73 bd 03 3f b7 bd 77 31 1c 3e a4 98 e2 3c
       -0.05948188 -0.089475654 0.15253244 0.027660675
0001d0 dd 88 96 3d 4b ec 3b 3d b8 78 5b 3b 48 e4 dd bc
       0.07350323 0.045879643 0.0033488702 -0.027086392
0001e0 84 e0 75 3d c2 30 f3 3d b9 34 68 3d 2a f5 3f bd
       0.060028568 0.11874534 0.056690905 -0.046864666
0001f0 14 8c d0 bd 70 26 7e bd bb fb b0 3d 3a c5 91 bd
       -0.10182968 -0.062048376 0.08641764 -0.07117696
000200 5a f3 21 3e d6 8e 89 3d 12 40 fa 3a 35 cd 06 3e
       0.15815488 0.06716697 0.0019092581 0.13164218
000210 6e 42 6a bd ad 1a 12 bd 4a 3c 7d 3d d8 16 2c bd
       -0.05719226 -0.03566997 0.061825074 -0.042013973
000220 7c 09 e1 3c ec ad 03 3e 60 8c 06 be cc ca 09 3e
       0.027470343 0.12859315 -0.13139486 0.13456267
000230 d9 85 e5 bd 2c a3 93 3b e2 6b 23 bd 4f 52 33 3d
       -0.1120717 0.0045055356 -0.039897807 0.043779667
000240 30 dd 6c 3b 7d d1 68 3d e0 92 0e 3e aa 01 40 bb
       0.003614258 0.05684041 0.13923216 -0.0029297867
000250 5d b8 65 3a 58 26 83 3d ca 40 2e 3b 8d 8b 59 3d
       0.0008763129 0.06403798 0.002658891 0.0531116
000260 3d 8b 50 3d 22 29 8d 3d f3 6a 51 3d 96 64 bd bd
       0.050914038 0.06892611 0.051127385 -0.09247701
000270 93 9c 75 3d 16 6f cc 3d 5f f1 de 3c 06 1f 19 3e
       0.059963774 0.099821255 0.027214704 0.14953241
000280 c9 66 cc 3d fa 87 c5 3c 3b 1f b4 bc b6 27 c6 3d
       0.09980542 0.02411269 -0.021987548 0.09675543
000290 5f 29 9a 3d b2 5a e7 3d cd 92 4b bd 87 9c ca 3d
       0.07527422 0.11296596 -0.049700547 0.098931365
0002a0 ab fb fb 3c 5d 21 e1 bd 86 c9 a4 3c d5 ba e0 3d
       0.030759653 -0.10992692 0.020115625 0.109731354
0002b0 dc 28 2c 3e f3 40 10 bd 39 23 83 3d f7 ff 96 bd
       0.16812462 -0.03521819 0.064032026 -0.0737304
0002c0 53 90 ba bc 43 78 9e 3d 0e ab 28 3d 3c a4 54 3d
       -0.022773897 0.07737782 0.041178755 0.05191444
0002d0 f6 63 cb 3d ef 4d b7 bd 3b ec 63 3d fa 23 14 3d
       0.099311754 -0.089504115 0.05564521 0.036167122
0002e0 86 57 62 bd 15 2e 25 bd b5 e7 d7 3d 08 00 e2 bd
       -0.05525925 -0.04032715 0.105422415 -0.11035162
0002f0 c3 bf d4 3d ad ff e5 3d e7 81 87 3c c9 33 a4 bd
       0.10388138 0.11230407 0.016541434 -0.0801769
000300 b5 81 09 bc 02 ae a9 3d 86 ba 60 bd f2 85 bd bd
       -0.008392741 0.082851425 -0.054865383 -0.09254064
000310 a0 6e fb 3b 18 9c 17 3d 5d 32 24 bd 22 d2 6d 3d
       0.0076730996 0.037014097 -0.040087093 0.058061726
000320 93 40 e2 bb 69 b6 e3 3d 25 ef bc 3b 45 16 16 bd
       -0.0069046705 0.11118776 0.005765813 -0.03664233
000330 00 0a e7 bd 40 60 e8 bd 58 d4 db 3d 2b 3a 49 3d
       -0.11281204 -0.11346483 0.10733861 0.04912774
000340 0b a8 ba 3d b4 bf 97 3b 4e 8d b9 3d 96 fb c2 bd
       0.09114083 0.004631007 0.09060155 -0.095206425
000350 2e 81 78 bd 09 0b 2a bc 5c 59 12 3e ad 6b 13 3c
       -0.06067007 -0.010378608 0.142919 0.00899784
000360 05 2f 0d 3e de 2e bd 3d 0d 91 01 bd cd 5c 8b bd
       0.13787468 0.09237455 -0.03163247 -0.0680481
000370 79 9c 68 bc f4 83 df 3d ae cf d2 bd 1f 9c 88 3d
       -0.014197462 0.1091384 -0.10293518 0.06670403
000380 f7 45 fd 3d da 9b d8 3d e8 90 3e 3e d9 d4 99 bd
       0.1236686 0.10576601 0.18609965 -0.075113006
000390 59 08 aa bd c3 f8 2a 3d c7 6a 40 3c 70 7f ab bd
       -0.083023734 0.041741144 0.011744208 -0.08373916
0003a0 eb 3c a0 bc 76 2b 82 bd b8 81 22 be 7a cc 23 3d
       -0.019560298 -0.06355946 -0.15869796 0.039989926
0003b0 2a e6 db 3d 57 00 63 3d eb a5 b0 3d b9 5c f1 3b
       0.1073726 0.055420246 0.08625396 0.0073657897
0003c0 e7 0d 09 3c 7f 8b e1 3d b6 4e 44 3e e6 f7 b6 3d
       0.008365131 0.11012935 0.19170651 0.089340016
0003d0 c7 4d 61 3c 82 95 b0 3c 00 c0 cf 3c 50 f2 a9 3d
       0.013751454 0.021555666 0.025360107 0.082981706
0003e0 6c 32 e9 3d 7e fc 88 bd 4b 13 ec bd f3 34 bc 3c
       0.1138657 -0.06688784 -0.11527117 0.022974467
0003f0 18 e4 6d 3d 4c be a6 3d a4 bd c1 3c 09 b4 9e bd
       0.058078855 0.08141765 0.023649998 -0.07749183

net.2.bias f4 [128]
000000 6a d4 c4 3c b2 77 99 3d f0 6c 3e bc f3 d6 6e bc
       0.024027068 0.07493533 -0.011622652 -0.014577615
000010 dc 5c a3 3d a4 b1 a3 bc 06 9e 98 3d 23 a0 4b 3d
       0.07976696 -0.019982167 0.074520156 0.049713265
000020 51 c1 b2 3d 97 16 cd b7 dc 65 4a 3d 00 08 84 3c
       0.087282784 -2.4448424e-05 0.049413547 0.016117096
000030 85 0d 8c bb 77 06 a6 3d d0 85 d7 bb ec 49 65 3d
       -0.0042740726 0.08106702 -0.006577231 0.0559787
000040 16 dc dc 3a 89 5d 3b 3d 48 b0 d0 bc 3b 9d b2 3b
       0.0016850259 0.0457435 -0.025474682 0.0054508722
000050 8d d4 4f bd be 99 3e 3b 08 6e e8 3d df ad 23 3d
       -0.050739814 0.0029083337 0.11349112 0.03996074
000060 f0 be 3d 3c 3b 88 9d 3c 86 97 d8 3d 4f e5 a7 3d
       0.011581168 0.019229999 0.10575776 0.08198034
000070 71 01 cd 3d fc 47 c5 bc d7 35 2d 3d 67 5d fb 3d
       0.100100406 -0.024082176 0.042287674 0.122736745
000080 94 97 87 3d 47 5a b5 bc bf 57 5f bc 93 4b 2b bd
       0.06620708 -0.022137774 -0.01363176 -0.04182012
000090 f6 67 c6 bc 18 c5 a0 3c cb 1b e2 3d 7f 96 bf bc
       -0.024219494 0.019625232 0.11040457 -0.023387192
0000a0 4f 31 16 3d b8 a0 bc bd 10 b0 31 3d e5 72 a2 3d
       0.036668118 -0.09210342 0.043380797 0.07932071
0000b0 19 95 19 bd ea e0 f3 3c b1 a0 3d 3d 26 37 33 bd
       -0.037495706 0.029770333 0.046295825 -0.043753766
0000c0 a8 51 97 3d af 81 ae 3d 09 67 ef bb a7 b7 c1 3c
       0.073886216 0.08520829 -0.007305984 0.023647143
0000d0 5c d5 cd 3d 9e 5c e0 3c de 96 21 bc a2 4b 6d 3d
       0.10050461 0.027387913 -0.00986263 0.057933457
0000e0 05 3f b5 bd 0c f8 94 3d 1a c8 86 3b 82 59 b3 3d
       -0.08849911 0.07273874 0.0041132094 0.08757307
0000f0 1a 30 7d bc 6a 3e bb 3c 73 aa f9 ba fc a0 96 3d
       -0.015453363 0.02285691 -0.001904799 0.07354924
000100 9c f8 3a bd 37 97 c1 3d c1 bd b8 3d 8e ae 6b bc
       -0.04564725 0.0945267 0.09020568 -0.014384879
000110 81 29 d6 3d a9 37 b8 3d 2b 77 07 bc 27 9a 48 3d
       0.10457135 0.08994991 -0.008268158 0.048975136
000120 df 61 88 3d 3f 31 82 3c f0 eb d1 3d d3 b9 de 3c
       0.066592924 0.015892623 0.1025008 0.027188217
000130 c9 e8 b8 3c 55 fe 54 3d ea 90 d5 3d 59 c5 8f 3d
       0.022571938 0.052000362 0.10428031 0.07020063
000140 43 79 62 bd 74 7f d7 3c 84 8e 57 bd b6 80 ec ba
       -0.055291425 0.026305892 -0.052626148 -0.001804373
000150 9a da 59 3a 2b 37 94 bc 33 f3 a2 bb 85 18 72 bd
       0.0008310467 -0.018092712 -0.0049728393 -0.059105415
000160 bc 5f 95 bb 22 db 52 3d 03 1d dd 3d e3 a6 03 bc
       -0.0045585316 0.051478513 0.10796549 -0.008035394
000170 0a ef c7 3d 26 54 b8 3d 66 2b e4 bc 61 f2 b8 3d
       0.0976239 0.09000425 -0.027852725 0.09030605
000180 9c 18 af 3c 38 59 0e 3e 21 a7 d6 3c da 4f e0 3c
       0.02137404 0.13901222 0.02620274 0.027381826
000190 c6 a0 e2 3d 03 12 1f bd bf 8f 71 3d 3d f1 76 bd
       0.11065821 -0.038835537 0.058974978 -0.060288657
0001a0 64 6c af 3c 13 da 04 3d 1c 09 a1 bc cb a2 7a bd
       0.02141399 0.032434534 -0.019657664 -0.061190408
0001b0 a3 e4 88 3c 93 cb 0c 3d da ed 42 3d 33 1f 94 bb
       0.016710585 0.03437383 0.047590114 -0.004520321
0001c0 9b fb f4 3d 6b 04 74 3d 1e c3 62 3d 8d 34 49 3d
       0.119620524 0.059574526 0.05536186 0.049122382
0001d0 d0 0c 0a 3c 00 b8 2d 3d b5 ac 97 bd 94 27 c0 3d
       0.008425906 0.042411804 -0.07405988 0.09382549
0001e0 8f f9 02 3a 06 82 f8 bc f2 87 7e bc 61 30 8a bc
       0.00049962936 -0.030335438 -0.015535342 -0.016868772
0001f0 8d 5e 01 bd e6 91 6d bd 91 3c fc 3c 24 5a 9d 3d
       -0.03158431 -0.058000468 0.030790599 0.076832086

net.4.weight f4 [5, 128]
000000 0a 02 28 be 8d b3 64 bc 4b 7e df bd 52 23 e1 bd
       -0.16407028 -0.013958824 -0.1091276 -0.10993065
000010 dc 51 f4 3d f5 1f 32 3d 9f b1 31 3d a3 7c eb bd
       0.11929676 0.043487508 0.043382283 -0.11498382
000020 e4 b3 b0 3d 90 fe ab bd ed a4 01 3d 15 08 cf 3d
       0.086280614 -0.08398163 0.031651426 0.101089634
000030 fe 8e 8e bd bf b4 1f 3e 66 cd 45 3e c8 5e d3 3d
       -0.06960867 0.15596293 0.19316635 0.103208125
000040 bd 2b ae 3b 61 2e ed 3c d8 7a d5 3c 33 48 cd bc
       0.0053152726 0.02895278 0.026059553 -0.025058841
000050 b0 aa 0d be 9c a1 36 be 28 0e e6 3c 91 e2 07 3a
       -0.13834643 -0.17835087 0.028082922 0.00051836023
000060 84 e2 b3 3d 52 84 f9 3c 1a 61 c9 3d 06 f0 c0 3d
       0.08783439 0.030458603 0.09832974 0.09420781
000070 69 68 27 3e 8a 67 1f be 73 07 38 3e 85 d8 09 be
       0.16348423 -0.15566841 0.17971592 -0.13461502
000080 4a 71 25 be 94 b9 c9 3d 57 f9 0d be 55 02 61 bd
       -0.16156498 0.09849849 -0.13864647 -0.054933865
000090 ec db 55 3d 4a 6c ad 3d 90 6c 50 bd b6 c3 15 3d
       0.052211687 0.0846792 -0.050884783 0.036563598
0000a0 ce 58 43 3d 0d 86 6f 3b 04 bf d4 3d 3b c2 1d be
       0.047692113 0.0036548406 0.10387996 -0.15406124
0000b0 64 51 d5 bc 57 6e a5 bd 6e d5 c4 3c c5 03 08 be
       -0.026039787 -0.08077686 0.024027552 -0.13282688
0000c0 4e 3c 47 bd ce f5 fe 3d a7 c6 7e 3d df 5d 2a 3e
       -0.048641495 0.12449227 0.06220117 0.16637371
0000d0 2e 3e ab 3d f1 9b da bd a7 d9 bf bd b1 c5 ed bd
       0.08361469 -0.10674275 -0.09367686 -0.11609972
0000e0 4f 25 fb bc 94 d5 31 3e 29 57 0c 3e 3e bf 08 3e
       -0.030657439 0.1736663 0.13705124 0.13354203
0000f0 6a dd 45 3e f1 fa 44 3e fd cd ff 3d 2c d8 78 bb
       0.19322744 0.19236352 0.12490461 -0.0037970645
000100 8c 2f aa bb 37 9d 56 be f8 dd 00 be cc f6 ea bd
       -0.0051936563 -0.2095841 -0.12584674 -0.11472854
000110 36 9f 15 be 50 8a 2e be 53 04 d4 3d 86 18 21 be
       -0.14611515 -0.1704495 0.10352387 -0.15732011
000120 fd df 20 be de c0 1b be 4b df d7 3c ea 84 ae bd
       -0.15710445 -0.15210292 0.026351592 -0.08521445
000130 ad 24 81 be 53 6d 64 bd 08 9b 1e 3e 3a f4 55 3e
       -0.25223294 -0.055768322 0.15488827 0.20893946
000140 48 e9 cb 3d aa ce ec 3d c0 8e ad bc c5 3d d8 3a
       0.09956604 0.115628555 -0.021186233 0.0016497901
000150 4b e6 22 bc 75 f7 7e 3b 6d 45 02 3e d4 99 78 bc
       -0.009942601 0.003890482 0.12721796 -0.015173394
000160 a6 d1 1c 3e c0 35 45 be 38 54 1e be 31 37 e6 bd
       0.1531435 -0.19258785 -0.15461814 -0.11240996
000170 4e 4a dc bd 90 a3 29 3e fd 4e d2 bd 74 99 a5 3d
       -0.1075636 0.165663 -0.10268972 0.080859095
000180 74 eb c9 bc c0 72 a6 bd fc 3a 9f bd 1a 5f 3a be
       -0.024648406 -0.081273556 -0.07774922 -0.18200341
000190 24 31 25 be b2 30 67 3d 42 81 3d be 68 57 27 be
       -0.16132027 0.056442924 -0.18506339 -0.16341937
0001a0 55 0d 5f 3e ff b1 97 3d dd c3 af bc 0f 29 cb bc
       0.2178243 0.07406997 -0.0214557 -0.024799852
0001b0 a9 f4 5b 3d e0 43 ef 3c ac f5 29 be c1 1f 2e 3e
       0.053700123 0.02920717 -0.16597623 0.170043
0001c0 22 cc 2b 3e 79 c7 b8 3d 2a 03 14 3e 14 32 19 be
       0.16777089 0.090224214 0.14454332 -0.1496051
0001d0 4f 35 dc 3c 52 df bc 3d 52 c7 42 be 19 1e 33 be
       0.026880888 0.092222825 -0.19021347 -0.1749195
0001e0 05 a7 81 3d 03 be 54 3d 63 71 8e 3a 5e 41 6a bd
       0.063306846 0.05193902 0.0010867532 -0.057191245
0001f0 bc 57 2d 3e 1b 0a a7 bc 17 09 33 be 32 cc a0 be
       0.16928 -0.02039056 -0.17483936 -0.3140579
000200 23 b1 b4 3d 4d 62 48 be e7 3c ab 3d 08 77 6c 3d
       0.08822849 -0.19568749 0.083612256 0.057730705
000210 c6 2e 5a 3c cf 06 42 be 63 88 5c be fb f0 39 be
       0.013316816 -0.1894791 -0.21536402 -0.18158333
000220 f2 eb d0 3c dc d6 a3 bd 5b 05 5f bd 09 97 54 be
       0.025503132 -0.079999655 -0.054448467 -0.2076074
000230 55 29 d9 3d 1a 2d 8d 3d 47 1a 19 be e6 56 a2 bd
       0.106035866 0.06893368 -0.1495143 -0.07926731
000240 c0 2a 38 3d 86 74 14 3d e7 ad 26 3c 8e a4 05 3e
       0.044962645 0.036243938 0.0101732975 0.13051054
000250 3b 2a 35 be 88 4c 41 bd bd c7 01 3e 5e f1 c0 bd
       -0.17691891 -0.047192127 0.1267385 -0.09421037
000260 c9 b8 ff 3d 91 41 4c 3e f6 5e 98 3d e3 69 04 3e
       0.12486417 0.19946887 0.07439987 0.12931018
000270 74 63 73 bd 64 29 07 bd d2 80 e0 3c 4a 01 29 be
       -0.059421018 -0.032998458 0.027405176 -0.16504398
000280 74 d7 89 be e0 fe 36 be d6 8b b7 bd 5a 63 5a 3e
       -0.2692219 -0.17870665 -0.089622185 0.21326962
000290 c6 7d 0e 3d 8b 09 88 3d d9 60 d0 3d bf 9e 32 3d
       0.034787916 0.06642445 0.10174722 0.043608423
0002a0 27 3b 58 3d 1d 77 21 3e 2e fb 0d be 93 da e0 bd
       0.052790787 0.15768094 -0.13865349 -0.1097919
0002b0 e9 96 7a be b4 0f 61 be c6 4b 43 be 52 76 ab bd
       -0.2447163 -0.21978647 -0.19071874 -0.08372177
0002c0 ef 24 87 3d 5c 2f ec bd d3 3d 12 3e c8 ed fd bc
       0.065988414 -0.115324706 0.14281397 -0.030997172
0002d0 35 e9 ed 3d df 48 22 3e 64 fe 4b be 36 05 21 3e
       0.11616746 0.1584811 -0.19921261 0.15724644
0002e0 1d 44 df 3c d3 30 3a be 07 ec 7a 3d cb 81 3e be
       0.027254159 -0.18182687 0.06126025 -0.186042
0002f0 25 6f ac bd 34 10 f0 bd d0 f6 e7 bd 80 b5 28 be
       -0.08419637 -0.117218405 -0.113263726 -0.16475487
000300 61 65 71 be 3f 7b b5 3b ef f6 e6 3d 9d 6b 85 be
       -0.23573829 0.0055383737 0.112775676 -0.26058665
000310 dc 52 2c be e1 1e 70 3d 7e d6 74 bd 13 09 19 3c
       -0.16828483 0.0586232 -0.05977487 0.009340542
000320 a4 d4 78 be 1a ef 76 bd aa a3 22 3e c7 3a ee bd
       -0.24299866 -0.06028662 0.15882745 -0.11632305
000330 bd 0f 32 3e 79 d2 4e be 6c 3e 4c be cb cb 0d 3b
       0.17388816 -0.20197476 -0.19945687 0.0021636363
000340 89 62 3f 3e 8c 6f 49 be b1 c7 95 bd 16 aa 44 be
       0.18689932 -0.19671458 -0.07313479 -0.19205508
000350 04 52 4a bd 8f 0b 81 bd 9b b5 49 be a5 24 5e bd
       -0.049394622 -0.06301033 -0.19698183 -0.054234166
000360 2b 5e 1b be b5 96 2d bc c5 41 c1 3d f7 f8 36 be
       -0.15172641 -0.010595013 0.09436373 -0.1786841
000370 31 a2 23 3e ce 20 11 be ad 51 f4 3d c6 e5 2d be
       0.1597984 -0.1417267 0.11929641 -0.16982183
000380 f2 49 03 be dd 0e aa be aa 25 11 be 23 cf 5f be
       -0.12821177 -0.33214465 -0.14174524 -0.2185636
000390 d6 5d eb 3d 3d 77 06 be 84 d6 0d be 89 42 dc 3d
       0.11492507 -0.13131423 -0.13851362 0.10754878
0003a0 48 70 73 bd c3 86 27 be 83 d4 fb 3d f2 83 b0 bd
       -0.05943325 -0.16360001 0.12296393 -0.086189166
0003b0 6d 61 66 be c3 32 f4 3d 93 3d da 3d cd 97 16 be
       -0.22498102 0.119237445 0.106562756 -0.14706345
0003c0 6f 79 a1 3d 43 e7 36 be c2 02 19 be 54 2e 9f 3c
       0.0788449 -0.17861657 -0.14942458 0.01943127
0003d0 08 a6 bd 3d 41 44 c7 3d 0f 39 2c be d7 ce 11 3e
       0.092601836 0.09729815 -0.16818641 0.1423906
0003e0 83 58 87 3d 47 a2 68 be 57 a8 fa bc 8a 69 c0 3d
       0.06608679 -0.22718154 -0.030597849 0.0939513
0003f0 da 98 9b be cb d9 0c be dd eb 24 3e 8e f8 31 3e
       -0.30390054 -0.13754956 0.161056 0.17379972

net.4.bias f4 [5]
000000 75 28 8f 3d fc 00 ab bd a6 13 8a 3d 36 67 0e 3d
       0.069901384 -0.08349797 0.06742029 0.0347664
000010 c4 90 42 3d
       0.04750134
