CI_DRL_v2/pg_drl_model_final.pth (torch, 79606 bytes, 6 tensors)

net.0.weight f4 [128, 15]
00000000: b74a 133e 00c9 213e e0b0 c2ba 1d49 e03e
00000010: 15c3 bdbd 135d 1a3d 03db 4bbd 0f65 ba3d
00000020: 36f5 c23e 4243 93be 9db9 223e 10d0 883c
00000030: 4601 0d3e 55a3 a53d c565 b13d a965 b5bd
00000040: 5376 643e 7aa1 6e3b acc0 5abd 6405 083e
00000050: c49c 29be 6fb1 95bd d40f 03be c670 453e
00000060: 701d 83be 368e 1abe c689 97bd 6965 20be
00000070: 740e 9f3d 5e2c 61be 4f7f 6d3e 7a98 85be
00000080: 4fd6 b53e 82df df3d b1f1 31be 90ae 4e3e
00000090: c771 1c3c cc1b 883e 1d64 6cbd 8568 2bbe
000000a0: fa34 f13d 9b50 993c da11 003d 92bb 653e
000000b0: 9f12 393e 4eb4 1ebe c90c f83d 1ca7 723d
000000c0: 3b57 9b3e 4f80 5dbe a1e3 73be cace 9fbd
000000d0: 342c 6abe 620c b03e daf2 433d d578 233d
000000e0: 9927 ae3d 4951 20bc 4c4e bf3d 4bff 80be
000000f0: dce4 f2bc 7021 10be 593b b03d 2534 5ebe
00000100: 1537 123e 20f1 9dbb fb0a 863e 49f9 62be
00000110: ec77 4abe 9860 33be 1ec3 823e ba15 e73d
00000120: f5c0 9e3e d83e 46be cd3d 73be 7b72 74be
00000130: 0dbf 3ebe 25d5 2a3e e350 8dbc a00a e33e
00000140: e6b5 c4bd 6bee aebd 110b 7e3e 8461 29be
00000150: e6a4 153e 3476 7ebd c501 0f3e abaf 51be
00000160: c448 e3bd 0028 b63d fba5 093e cc8e a9bd
00000170: e56e 983e 7c08 963e 2b3c 89be e4b6 6fbd
00000180: 9c38 6f3e d6c2 94bc 33c3 f6bc f6e5 9bbe
00000190: 7776 d7bd 197c 4e3c 6730 94bd cc45 74be
000001a0: a65c 36bd 9a6b 14be 90cd 3dbe 8caf 28be
000001b0: 4f03 b2be eb78 91be 5fce 823e 7327 263d
000001c0: 18c2 4e3e cd9c 99be 81e9 20be c2f2 22be
000001d0: de3d b1bc db55 5dbe 0952 2abe 8331 39be
000001e0: 44d4 c3bd 90e0 e2bc 5c2a e3bd 882f 4abe
000001f0: 7179 56be 3557 6dbe 5c8e 90bd ad77 95be
00000200: 4073 363e 504e 39bd 3432 713e e167 eb3d
00000210: 329a 69be 1737 803e bf21 ddbb 36da 02be
00000220: 68a2 dcbd dc32 babe 3fbc 1d3e 0a65 5cbe
00000230: e5ee c03d 1f47 32be b9a1 993e a8da 74be
00000240: cbe5 303d e01c b4bc 60ef d23d 0451 433e
00000250: 36ae 473e 5594 54be f4b7 ce3c 5869 e4bd
00000260: 1fa4 663d 4e2f bfbe 5b61 b03e 6ca3 4fbd
00000270: 1cea e93d 0317 1b3e fd44 e53b ea2c d5bd
00000280: 00da 583e 7be2 023d 1290 ad3b d16a 26be
00000290: bdfb 053e eea2 c6bd 1783 92bd 67ac be3e
000002a0: f76f a23d 5c80 82be 47ea dbbd e301 aebc
000002b0: c27e 523e f6d1 2bbe b7aa 10be d096 49bd
000002c0: c72d 66be 7fb1 f13d f7be 503e 9c1c 8dbe
000002d0: b69d 56bc bbd9 093e 40db ce3d 547c 88be
000002e0: 5d20 813e 85c5 443e 7b97 e43d 1d8e f5bc
000002f0: 1238 bebd 3c4e 503d d20f 9d3c 099e 9fbd
00000300: e08a 283e f410 713e 8b64 b8bd ae2d 29bd
00000310: f3c6 f03b a22f 41bd ddda 553e d62a 67bd
00000320: 2066 5dbe 522a 16be 4341 833e 49de 1e3e
00000330: 2f77 f6bc 88d3 46be 63f9 fdbd 04aa 61be
00000340: 0fbb 00be 7679 6e3c 0cef 0f3e 0be7 293e
00000350: fb81 a1be a774 30be 4ae8 43be 1966 a03e
00000360: 69ca 333d f277 15be 7ba6 da3d 3665 04be
00000370: 3082 87bd 0599 873e afd3 e3bd 3c28 22bd
00000380: a41a b6be a5cd 243e 97c2 553e 2a52 dd3d
00000390: 5303 a6be 2d75 b8be b811 3cbe 55a4 393e
000003a0: 7d95 623e 3bec 143e b97e da3d 10be 5bbb
000003b0: aac1 89bd 08bd 2abe 929d 3ebe a38e 4dbe
000003c0: 9528 573e e358 1fbe 8d67 03be aec7 92be
000003d0: 03a2 2dbc dcb2 33be 536b 7abe 8a07 1d3e
000003e0: d473 d4bd 4df1 023e 38f9 36be e76b 37be
000003f0: e63c 183d ef92 17be a963 7cbd 560b b7be
0.1438397 0.15799332 -0.0014853738 0.4380578 -0.092657246 0.03768642 -0.049769413 0.09101307
0.38077706 -0.2876225 0.15891118 0.016700774 0.13770017 0.08087794 0.08661989 -0.08857281
0.22310762 0.0036412166 -0.053406402 0.13283306 -0.16563708 -0.073092334 -0.12799007 0.19281301
-0.25608397 -0.15093312 -0.07399325 -0.15663685 0.077664286 -0.21989581 0.23193096 -0.26092893
0.35515067 0.109313026 -0.17377354 0.20183778 0.009548611 0.26583707 -0.057712663 -0.1673909
0.117776826 0.018715193 0.031267025 0.22434834 0.1807351 -0.15498468 0.121118136 0.0592414
0.3033999 -0.21630977 -0.23817302 -0.07803114 -0.22868425 0.34384447 0.047839023 0.039910156
0.085036464 -0.009785005 0.09341106 -0.25194773 -0.029650144 -0.14075255 0.0860507 -0.21699579
0.14278825 -0.004820004 0.26180252 -0.22165407 -0.19772309 -0.17517316 0.25539488 0.11283441
0.3100659 -0.1935991 -0.23754044 -0.23871796 -0.18627568 0.1668287 -0.017250484 0.44344044
-0.09605007 -0.08541568 0.24808909 -0.16541106 0.14613685 -0.062124446 0.13965519 -0.20477168
-0.11097863 0.08894348 0.13442223 -0.082791895 0.29772106 0.29303348 -0.26803717 -0.058524027
0.23361439 -0.018159311 -0.030122375 -0.30448884 -0.10520642 0.012602829 -0.072357945 -0.2385475
-0.04452195 -0.14494172 -0.18535447 -0.16473216 -0.3476815 -0.28412566 0.25548074 0.040564965
0.20191228 -0.30002442 -0.15714075 -0.15912917 -0.021635946 -0.21614783 -0.16632856 -0.18085293
-0.09561971 -0.02769497 -0.11092064 -0.19744694 -0.20944764 -0.23177798 -0.07058403 -0.29192868
0.17817402 -0.0452407 0.23554307 0.11494423 -0.22812727 0.2504203 -0.0067484076 -0.12778553
-0.10773164 -0.36366928 0.15403841 -0.21522918 0.094205655 -0.17409943 0.30006197 -0.23911536
0.043187898 -0.021986425 0.102995634 0.19073874 0.1950005 -0.20759709 0.0252342 -0.11152905
0.05630886 -0.37340778 0.34449276 -0.05069296 0.11421606 0.15145497 0.0069967494 -0.10408957
0.2117691 0.03195427 0.0052967155 -0.16251685 0.13084312 -0.09699045 -0.0715391 0.37240908
0.07931512 -0.25488555 -0.10738044 -0.021241134 0.20556167 -0.16779312 -0.14127623 -0.04921609
-0.224784 0.11801433 0.20385347 -0.2756089 -0.013099125 0.13461964 0.10100412 -0.26657355
0.25220004 0.19215973 0.11161705 -0.029974991 -0.09288038 0.05085586 0.019172583 -0.07793815
0.16459227 0.23541623 -0.09003552 -0.04130333 0.0073479353 -0.047164567 0.20884271 -0.056437336
-0.21620989 -0.14664581 0.25635728 0.15514483 -0.030086128 -0.1941663 -0.12401082 -0.22037512
-0.12571357 0.014555326 0.14056033 0.16592042 -0.3154448 -0.17232 -0.1913158 0.31327894
0.043894205 -0.14596537 0.10676285 -0.12929234 -0.06616628 0.26483932 -0.1112436 -0.03958915
-0.355672 0.16094072 0.20875011 0.10806687 -0.3242441 -0.36026898 -0.18366134 0.18129094
0.22127338 0.1454324 0.10668702 -0.0033530034 -0.067263916 -0.16673672 -0.18614796 -0.20073943
0.21011575 -0.15561251 -0.1283247 -0.2866797 -0.010597709 -0.17548698 -0.24455003 0.15334907
-0.10373655 0.12787361 -0.17868507 -0.17912255 0.037167452 -0.14802144 -0.06161848 -0.35750836

net.0.bias f4 [128]
00000000: 77ca adbd cb3e debd fdb9 843c 262c 973d
00000010: 6d8f 6a3e 5c91 af3d bd65 393e a0f5 7e3c
00000020: f09f 473e a5db 913e 7a87 e9bd 1bfd 263c
00000030: 6538 cfbd d966 6e3e 2125 25be 3aca 65bd
00000040: ea20 c13e 220d 3cbe 60cb 8a3e 21ed c93d
00000050: 2a01 ab3e 0c62 a4bd a670 813e 9944 0f3e
00000060: 22f7 573d 14d2 563e f9df 43be adab eebd
00000070: cbdc 9e3e 4bbc 41be 2728 a2bd 18a7 ea3d
00000080: ba34 efbb 6c43 0c3d 62f4 10be 9d12 2e3e
00000090: 93b3 20be a255 063e abd6 803e bc5c 0e3e
000000a0: f89d 153e 9463 293e 7ee1 48bd 353f 9c3c
000000b0: 26de 18bd a7e9 77bd b620 54bd 8ad3 ae3e
000000c0: f7d2 2a3d 61ae 293e 6ce2 993e ab87 913d
000000d0: 4633 b0bc 6224 b8bd 982e d0bb 41e4 723e
000000e0: 092b cabd 6da5 443d 1306 513e 7c95 9e3e
000000f0: d1ed c73d b6c3 c73d 7893 753e 18b0 793e
00000100: 3a1f 843e 0d3a 0bbb 781e 13be 7652 1f3c
00000110: 288c 8d3c e496 c03d 71c1 7f3d bfee 043e
00000120: c9bf 963e e73c 3ebd 4d87 d5bd 0bdc 03be
00000130: cd8e 1cbd 75ec 2b3e 6030 babd b199 4c3d
00000140: 4e31 f83c 0410 b5bd c6ff 153e e929 9bbd
00000150: f3d0 b43d 6a36 34be 1143 283d 6dba 123e
00000160: 1698 9f3d f852 cfbc 030c 523e e79a 2cbd
00000170: 6979 bbbb dbc9 bfbd 9810 a93d 144e 08be
00000180: d7c2 9d3e 8553 f5bc 81c7 8abc e535 913d
00000190: c5dc a83d 3e80 623d 91c8 573e c994 73bd
000001a0: bb64 0e3e 184a a13d b157 04be ec6e 82bc
000001b0: 784d 9c3d 5f62 c13d 4f58 923e 34b0 8c3e
000001c0: f138 e1bd 1aee 2abd 339c 1a3d 93b5 f0bd
000001d0: e0ad 12bd 17a8 2dbe 52d2 493e 8bd6 673e
000001e0: dd5c d13d 9da4 a5bd 5c7f 8bbd b5d0 53bd
000001f0: 5c9f 0c3e 3c1a 993d bb5d d13c e348 c93e
-0.08485883 -0.108518206 0.016201967 0.073814675 0.22906275 0.08572647 0.18105216 0.015561491
0.19494605 0.28487888 -0.11402793 0.010192181 -0.10118178 0.23281421 -0.16127445 -0.05610106
0.37720424 -0.18364385 0.27108288 0.09859682 0.33399326 -0.080265135 0.25281256 0.13991012
0.05272592 0.20978576 -0.19128408 -0.11653838 0.31027827 -0.18919484 -0.07917815 0.11457652
-0.0072999867 0.034243986 -0.14155725 0.16999288 -0.15693502 0.13118604 0.2516378 0.13902563
0.14611042 0.16541892 -0.04904317 0.019073108 -0.037321232 -0.060525563 -0.051789008 0.34145766
0.041705098 0.16570427 0.3005556 0.07105955 -0.021508824 -0.089913145 -0.0063532107 0.23719884
-0.098714896 0.048009325 0.20412473 0.30973423 0.09762157 0.09754126 0.23982036 0.2438358
0.25805074 -0.0021244318 -0.14367092 0.00972425 0.017278746 0.0940378 0.06244034 0.129817
0.29443195 -0.0464448 -0.10426197 -0.12876908 -0.038222123 0.1678942 -0.09091258 0.04995126
0.030296948 -0.08840945 0.14648351 -0.07576353 0.088289164 -0.17598882 0.041079585 0.14328928
0.0779268 -0.025308117 0.20512395 -0.042139914 -0.0057212603 -0.09364673 0.08255118 -0.13311034
0.30812714 -0.029947052 -0.016940834 0.07090358 0.082452334 0.055298083 0.21072604 -0.059468064
0.13905613 0.078754604 -0.12924077 -0.015922032 0.076319635 0.09442591 0.28583 0.27478182
-0.10997189 -0.041730978 0.03774662 -0.117533825 -0.03581035 -0.16958652 0.19709137 0.22640435
0.102227904 -0.08088038 -0.06811401 -0.05171271 0.13732666 0.07475707 0.02555739 0.3931342

net.2.weight f4 [128, 128]
00000000: 9d05 9f3d e53c 583d a64c c9bd 5a63 aa3d
00000010: 836b 8b3d 45cf 18bd 2a90 cdbd d432 56bd
00000020: 2a48 aa3d 5b67 0b3d 95b5 7d3c da99 0dbe
00000030: 1bf0 983d 3427 b63c 7906 0e3d a312 81bd
00000040: 5d08 843d bdda a1bc 3fe7 e13d bec9 00be
00000050: cbe9 a33a 8b82 86bb 098f 90bb c03b 843d
00000060: e3ce c4bc 97b9 903d 4465 963c 1cd9 35bb
00000070: c06b d03d 247c 633d 3dd9 c53c 9a92 553d
00000080: c4d7 903c dd28 77bc a9c6 ecba 460d b8bb
00000090: f7ce a03d 093c 053e 08e1 04bb dcc1 18bc
000000a0: 3506 033e 1b10 8d3c 1050 47bc 1c32 4abd
000000b0: c112 dd3d fbb7 f03d eb41 b4bd 2c08 acbc
000000c0: a440 15bd c11e 733d efaf 423d 8381 07bb
000000d0: e4b1 893b 807b 8c3d 3a08 eb3c b70f 32bd
000000e0: 76c9 bcbc 5db6 ab3c 8a62 253b bc19 0f3e
000000f0: 71ab 7ebd 699c f73b 2eb8 a43d f194 353d
00000100: a8ef 9a3c fcd3 b83d 2f38 193e 9e41 a43d
00000110: ea16 fa3d e5a8 ab3d 5c75 673d 7fad 973d
00000120: d89a 9f3c 0bd5 303d 0d0f d93d a495 5d3d
00000130: 6d4b 103d 43ed 7c3d d7ee 123e ed45 f1bd
00000140: 2d24 f83d 91ea 90bc fb12 ed3d ccc4 d6bc
00000150: 39ed 36bc d2f2 ab3d 69d4 df3c 38a8 e6bb
00000160: aabd 383b f83d fabc f6ea 623d 37b5 8dbc
00000170: 174e de3d 7e53 2bbe c31a 8fbc 4067 883d
00000180: 9a9f bf3a 1c8c 573d a598 c23b e58b 0a3c
00000190: 0a2f 013e 722d 213d 6776 94bc 70c5 19be
000001a0: 7677 98bd 7477 a4bc 4b80 223e 1451 0d3e
000001b0: 49c9 dc3d 004c 003e 9310 e3ba 460a 32bd
000001c0: 9798 74bd 44c0 b8bd e2b7 1c3e 7c43 e13c
000001d0: c883 963d 9246 403d f0dd 8b3b 622d d8bc
000001e0: 70ca 783d 66ef f33d d42c 633d b1f8 3bbd
000001f0: 368b cfbd 4b4c 7fbd 2d48 b23d c594 92bd
00000200: b2af 233e 8730 8d3d 70e3 533b e10b 083e
00000210: afb6 64bd e828 0ebd 936a 803d e8ad 26bd
00000220: 7690 eb3c 6362 053e d9dd 05be a3be 0a3e
00000230: f220 e2bd aa71 a83b 401a 20bd 952d 333d
00000240: 8d7e a33b 281a 6d3d c214 103e d0e5 01bb
00000250: 4984 253b a457 833d e207 613b 6008 5b3d
00000260: c63b 553d a1fd 8f3d d5f5 563d 17c1 b9bd
00000270: 5b92 7e3d 4bfd cf3d 768d e63c 2398 1a3e
00000280: 6365 ce3d dd04 ca3c 2c86 adbc d901 c93d
00000290: 71e6 9b3d b8d9 e83d 9e32 46bd e2af cd3d
000002a0: e0de 043d 512a debd 470d b03c b11b e33d
000002b0: 7a81 2d3e 0cf1 09bd 3163 823d 2ca8 95bd
000002c0: e3f8 b0bc 253f a13d 2de0 2b3d 1b5c 5a3d
000002d0: be15 cd3d cb5a b3bd 355b 653d 4074 1b3d
000002e0: cea0 5abd a6bf 21bd 7c9b d93d 3e6b debd
000002f0: c46c d73d 06b6 e83d f5b1 8e3c a758 a0bd
00000300: 4aa1 d9bb d145 ac3d f0c6 5bbd 90a9 b9bd
00000310: 879f 0f3c df51 183d a89e 1ebd 0060 733d
00000320: 3ceb c2bb 04b6 e63d ab77 ee3b cc6d 12bd
00000330: bc0e e4bd 641a e7bd d9c2 dd3d fe02 4c3d
00000340: 8f1b be3d 912d a73b 2106 bc3d a3b1 c0bd
00000350: 6ab3 73bd 240c 20bc 9f16 143e 3623 1a3c
00000360: acdc 0d3e 428f bf3d 17b9 f9bc 0162 88bd
00000370: 878b 56bc 6395 e13d f51a d0bd aa5b 8a3d
00000380: 080a 003e cebf d93d 0563 3f3e 0340 97bd
00000390: 94ca a7bd dfe4 2f3d 2905 523c b67f aabd
000003a0: 654a 9bbc 28af 7ebd 5b28 22be 9244 283d
000003b0: 211d df3d 64d0 693d 95a8 b33d f317 0a3c
000003c0: 08cd 1d3c 8eb4 e23d 3121 453e 72a1 b73d
000003d0: 75c3 673c 78e8 b93c 904d da3c 9609 ad3d
000003e0: 2408 ec3d d199 87bd eb87 e9bd 6ecb c13c
000003f0: f467 733d 12c4 a73d b433 ca3c 75ec 9cbd
0.077647425 0.05279245 -0.09829073 0.08319731 0.068076156 -0.037307043 -0.10037263 -0.052294567
0.083145455 0.034034114 0.015485187 -0.13828221 0.074676715 0.02223549 0.03467414 -0.06302383
0.06446908 -0.019757623 0.11030435 -0.12576959 0.0012505589 -0.0041049174 -0.0044115824 0.06456709
-0.024024433 0.070666485 0.018358834 -0.0027747815 0.10176802 0.05553831 0.024151439 0.052141763
0.01768101 -0.015085426 -0.0018064576 -0.0056168167 0.078519754 0.13011183 -0.002027573 -0.009323563
0.12795337 0.017219594 -0.0121650845 -0.049364194 0.10794593 0.117538415 -0.08801635 -0.02099999
-0.0364386 0.0593555 0.047531065 -0.002067656 0.0042021144 0.06859493 0.028690446 -0.043472018
-0.023045283 0.020960981 0.0025235736 0.1397466 -0.062175218 0.0075564873 0.08042942 0.044331495
0.018913105 0.09024808 0.14962839 0.08020328 0.12211402 0.083818235 0.056508407 0.07406139
0.019483015 0.043171924 0.10598574 0.054097787 0.03522818 0.061749708 0.14348923 -0.117809154
0.12116275 -0.017689975 0.11575886 -0.026216887 -0.011164957 0.08395924 0.027322965 -0.007039096
0.002818922 -0.030547127 0.055399857 -0.017298324 0.10854738 -0.16731068 -0.017468816 0.066603184
0.0014619709 0.052623853 0.005938607 0.008456205 0.126156 0.03934998 -0.018122865 -0.15016723
-0.0744466 -0.020076491 0.15869252 0.1380046 0.107805796 0.12528992 -0.0017323665 -0.04346683
-0.059715834 -0.09021047 0.1530452 0.027498 0.07349354 0.0469423 0.0042684004 -0.026388828
0.060739934 0.11910896 0.055462673 -0.045891467 -0.10133974 -0.062328618 0.08705173 -0.07157282
0.15984991 0.068940215 0.0032331608 0.13285781 -0.055838283 -0.03470698 0.062703274 -0.040693194
0.028755408 0.13025813 -0.1307291 0.13549285 -0.1104144 0.005140503 -0.039087534 0.043744642
0.0049894513 0.057886273 0.14070418 -0.0019820817 0.002525585 0.064132005 0.0034336974 0.053474784
0.052058958 0.07030798 0.052480537 -0.09070032 0.062151294 0.10155734 0.028143626 0.15097098
0.10077932 0.024660522 -0.021182142 0.098148055 0.076123126 0.113696516 -0.048388116 0.100433126
0.032439113 -0.10847915 0.021490706 0.11089266 0.16943923 -0.033677146 0.063665755 -0.07307467
-0.021603053 0.07873372 0.041961838 0.053310495 0.100139126 -0.08757552 0.055995185 0.03795266
-0.05337601 -0.03948941 0.106253594 -0.108602986 0.10518792 0.11362843 0.01741884 -0.07829409
-0.0066415416 0.08411754 -0.05365652 -0.090655446 0.008766062 0.037187453 -0.038725525 0.059417725
-0.0059484523 0.112651855 0.007277449 -0.03574924 -0.11135623 -0.112843305 0.1082818 0.04980754
0.092826 0.0051018675 0.091808565 -0.094088815 -0.059497274 -0.00976852 0.14461754 0.009407809
0.13853711 0.09353496 -0.030483766 -0.06659318 -0.013094789 0.110148214 -0.10161392 0.06755765
0.12503827 0.10632287 0.18690117 -0.07385256 -0.081929356 0.042942878 0.012818613 -0.0832514
-0.018956373 -0.06217876 -0.15835707 0.04108102 0.10894228 0.057083502 0.08772389 0.0084285615
0.009631403 0.11069594 0.19250943 0.0896634 0.014145722 0.022693858 0.026648313 0.08449094
0.1152499 -0.06621135 -0.114028774 0.023656573 0.05942531 0.08191694 0.024682857 -0.07662288

net.2.bias f4 [128]
00000000: 7e94 c93c b679 9d3d 6921 51bc 4319 85bc
00000010: f12a a33d 39de 94bc f5e2 993d ec25 4e3d
00000020: 7c80 b13d 13b1 11ba 9432 4d3d 2ed4 813c
00000030: 037a 91bb 3bf5 a53d 8a9d bbbb 822b 643d
00000040: 4fc2 2e3a 98bf 363d 48b0 d0bc 5001 a03b
00000050: addd 53bd 4d69 233b 186a e53d fe37 213d
00000060: eec1 343c d92b 9c3c 0fe6 d63d 0279 aa3d
00000070: 1210 cd3d a4e7 cebc 693b 303d d82e fd3d
00000080: 0706 893d c62f aebc 3c8e 4dbc faeb 2cbd
00000090: f01e cdbc 56ab 9d3c 4ae5 e03d 8a96 bfbc
000000a0: 4f31 163d 5bcd bdbd f2aa 323d a1da a23d
000000b0: 390a 17bd ac28 fe3c 6452 383d 6d39 2fbd
000000c0: 2ff0 963d d741 ae3d 2ae6 05bc daa4 c53c
000000d0: 771d cb3d 4d68 d23c f0d9 19bc f892 683d
000000e0: 7ec6 b6bd f10f 973d f77a b23b c85d b33d
000000f0: df66 81bc 47be b93c 38b0 12bb b358 973d
00000100: 9fb8 37bd 4798 c23d 7de9 b83d 99b5 73bc
00000110: afd2 d73d 8c33 b93d 393b 13bc 2139 4d3d
00000120: a9c7 893d bb1a 873c 6912 d23d b58b e33c
00000130: fd0f b73c eaee 503d fd09 d83d 1f70 903d
00000140: 3e26 62bd fb81 e73c 89a6 51bd 5e2e 39ba
00000150: c727 d53a 6a46 9cbc 89e3 a2bb 8518 72bd
00000160: 9016 7abb dd41 503d 8b19 dc3d 8662 f0bb
00000170: d2db c53d 204e b83d 7c2c e5bc f60f bd3d
00000180: ab19 a93c 9944 0e3e 9b0c d33c dc68 db3c
00000190: ca49 e33d 2b8e 1cbd c83d 733d faca 7dbd
000001a0: f2e8 b33c 3cd1 0c3d 4dda acbc a1a8 7cbd
000001b0: 7457 953c c124 053d c065 453d f303 83bb
000001c0: fbba f53d 33ef 753d 3439 613d 3017 463d
000001d0: 6420 fb3b 70c5 303d ee4d 96bd 623a bd3d
000001e0: 75d1 d2b9 fdc9 e7bc 58fb 7abc 8703 98bc
000001f0: c260 02bd 1619 6ebd fa4c fa3c 905e 9b3d
0.02460694 0.0768923 -0.012764313 -0.016247397 0.07967175 -0.01817237 0.07513992 0.050329134
0.086670846 -0.0005557697 0.050097063 0.015848245 -0.0044395938 0.081034146 -0.005725567 0.055705555
0.00066665275 0.04461631 -0.025474682 0.004882969 -0.05172508 0.002493459 0.112018764 0.03936004
0.011032565 0.019063877 0.10493099 0.08323862 0.10012831 -0.02525694 0.043025408 0.1236245
0.06690603 -0.021263015 -0.012546118 -0.042217232 -0.025039166 0.019246738 0.109812334 -0.023387212
0.036668118 -0.09267684 0.043620057 0.079518564 -0.036874983 0.031025253 0.04500045 -0.042779375
0.0737003 0.08508652 -0.008172551 0.024126459 0.09917729 0.0256845 -0.009390339 0.056780785
-0.08924578 0.073760875 0.0054467875 0.08758122 -0.015796123 0.02267374 -0.0022382867 0.07389965
-0.044853803 0.09501701 0.09028909 -0.014874839 0.105382316 0.09043035 -0.008986288 0.05010331
0.06727535 0.016492238 0.10257418 0.027776578 0.022346491 0.051009096 0.1054878 0.070526354
-0.05521225 0.028260222 -0.05118421 -0.0007064099 0.0016262465 -0.019076545 -0.004970972 -0.059105415
-0.003816042 0.050844062 0.107470594 -0.0073359637 0.09661068 0.08999276 -0.027975313 0.0923156
0.020642122 0.13893355 0.025762847 0.0267834 0.110980585 -0.03822152 0.05938509 -0.06196115
0.021961663 0.03437923 -0.021100188 -0.061684255 0.018230177 0.032505754 0.04819274 -0.0039982735
0.11998554 0.06004257 0.054986194 0.048361957 0.0076637734 0.04315704 -0.07339083 0.09239651
-0.0004021038 -0.028294558 -0.015318714 -0.01855637 -0.031830557 -0.058129393 0.030554283 0.07586396

net.4.weight f4 [5, 128]
00000000: 57e2 26be 91a3 5abc e9f4 dcbd 5638 dfbd
00000010: ad5f f53d 8dd5 333d 3730 343d e89b eabd
00000020: 293d b23d 066e abbd 3546 063d 7d2d d03d
00000030: 75a0 8cbd ecd6 203e 92c0 463e a27d d43d
00000040: 1e09 d23b ff4e f63c d87a d53c 4149 cabc
00000050: 0e45 0dbe 9136 36be c49a ef3c a622 103a
00000060: f45e b63d f0e7 013d e4ab cb3d c489 c33d
00000070: 3613 283e 50dc 1ebe bd09 393e 0c43 09be
00000080: fb1e 25be 097e cb3d c849 0dbe bd4e 5cbd
00000090: 9906 5a3d a795 af3d 9374 4dbd b3c3 153d
000000a0: ce58 433d 52ff 823b b3af d63d b643 1dbe
000000b0: c917 d2bc 6354 a4bd fd2e c73c 9e88 07be
000000c0: 351a 42bd c812 003e febe 813d 8374 2b3e
000000d0: 4a48 ad3d 6501 d9bd 06ba bebd 2bc8 ebbd
000000e0: 57ec f1bc 9295 323e b474 0d3e 9564 093e
000000f0: 33b5 463e a4fc 453e d0df 003e facf 5dbb
00000100: bf6c 98bb 46c1 55be 59fa ffbd 5dad e9bd
00000110: 7126 15be 1e62 2dbe b4cf d53d 299a 20be
00000120: 119c 20be e374 1bbe 5bae e03c d7d5 adbd
00000130: 60cc 80be 5fd8 61bd 0962 1f3e b686 563e
00000140: 7761 ce3d cd08 ee3d dc3f afbc 013a 103b
00000150: 6722 15bc 5a0e a13b bbad 023e d499 78bc
00000160: bb4a 1d3e 04ed 44be d236 1dbe b138 e5bd
00000170: a682 dbbd 6723 2a3e 6abc d0bd 32ab a63d
00000180: 56aa cabc c02d a5bd 4577 9ebd 510b 3abe
00000190: 9205 24be 4cec 673d 9d0d 3dbe 8952 26be
000001a0: 7bde 5f3e 5b91 983d 9099 a6bc c842 c8bc
000001b0: a636 5d3d d882 f83c 7d9d 29be 8d1a 2f3e
000001c0: 4f0f 2d3e 3ec3 ba3d 78c6 143e 0be6 17be
000001d0: 4794 e43c 3335 bf3d 200f 42be d02b 32be
000001e0: a198 833d 68c5 563d 0355 a03a b3a2 65bd
000001f0: 06b9 2d3e aa31 a6bc 683a 32be 426b a0be
00000200: 9d28 b43d 013c 49be ff27 ab3d f547 6c3d
00000210: ce01 533c c21e 43be cf63 5dbe 135c 3abe
00000220: 1c62 cb3c 6e1a a7bd ffe7 5dbd 8e74 55be
00000230: c3fd d83d 2697 8c3d 78a9 19be 8afa a3bd
00000240: c3f1 373d 571e 143d e7ad 263c 9315 053e
00000250: ad0b 35be ec86 42bd 2d9a 013e 56f3 c4bd
00000260: 21f6 fe3d 4efe 4b3e 5ce1 973d fe2a 043e
00000270: aca7 74bd edaf 06bd fe2e dd3c 98ed 29be
00000280: d021 8abe 71b3 37be 13c3 b8bd 1662 5a3e
00000290: a5c7 0d3d 0169 873d d49f ce3d bf9e 323d
000002a0: 273b 583d 32f5 203e d48c 0ebe 7cff e0bd
000002b0: 3379 7bbe 10b3 61be 808e 43be 3ea0 aabd
000002c0: 2fd8 863d ede1 edbd d006 123e 534a 00bd
000002d0: 1c85 ed3d 5527 223e 209c 4cbe 61f8 203e
000002e0: 74eb df3c 0e8d 3abe 1b50 793d ea82 3fbe
000002f0: bb46 aebd 1bd9 f0bd 5fff e8bd 2059 2abe
00000300: 0dff 71be cb6a b63b c484 e63d 6e8d 85be
00000310: a799 2cbe f613 703d 855f 76bd c4e2 093c
00000320: 1e92 79be df16 77bd b25a 223e 3d84 f0bd
00000330: d0fd 313e 23c2 4ebe 6b5c 4dbe 9575 163b
00000340: f12e 3f3e 6a0d 4abe e814 98bd 1d88 45be
00000350: e1b8 4abd 870e 81bd 7733 4abe a524 5ebd
00000360: 6ec4 1bbe d0ff 3fbc 6739 c13d ff79 37be
00000370: 5f4c 233e a626 12be ccf3 f33d 09f7 2ebe
00000380: b1d9 03be a128 aabe 619b 12be f74d 60be
00000390: d8e9 ea3d 2a69 06be 5128 0ebe 2203 dc3d
000003a0: 9bcb 74bd 1568 28be 5983 fb3d cb22 b1bd
000003b0: 3f1a 68be 95d3 f33d 4d13 da3d 5537 17be
000003c0: 16a7 a03d 7135 37be 7773 19be d20a 9e3c
000003d0: 0b00 bd3d 81c3 c63d f91b 2cbe 6bce 113e
000003e0: 29b0 863d bc9e 69be e85a fdbc 4c18 c03d
000003f0: 60b8 9bbe db51 0dbe 4db6 243e 0de1 313e
-0.1629728 -0.013344661 -0.107889004 -0.10899417 0.11981139 0.04390483 0.043991294 -0.11455518
0.087030716 -0.08370595 0.0327818 0.10164926 -0.06866542 0.15706986 0.19409397 0.10375525
0.0064097783 0.030066965 0.026059553 -0.024693133 -0.13795874 -0.17794253 0.029248603 0.0005498327
0.089048296 0.031715333 0.09944895 0.09547761 0.16413578 -0.1551373 0.18070121 -0.13404483
-0.161251 0.09936149 -0.13797677 -0.05378603 0.05322895 0.08573466 -0.050160002 0.036563586
0.047692113 0.0039977217 0.10482731 -0.15357861 -0.025646107 -0.08023908 0.024314398 -0.13235709
-0.047388274 0.12507164 0.06335257 0.16743664 0.08461054 -0.10595969 -0.09312825 -0.115127884
-0.029531641 0.17439869 0.1381405 0.13417275 0.1940506 0.19334656 0.12585378 -0.0033845888
-0.0046516354 -0.20874509 -0.12498922 -0.114100195 -0.14565445 -0.1693196 0.10440007 -0.15683807
-0.15684535 -0.15181307 0.02742689 -0.08488052 -0.25155926 -0.05513799 0.15564741 0.20949826
0.10077184 0.11622772 -0.021392755 0.002200723 -0.00910244 0.004915041 0.12761585 -0.015173394
0.15360539 -0.1923104 -0.15352944 -0.11192454 -0.107182786 0.16615067 -0.10192187 0.08138122
-0.024739426 -0.08065367 -0.077375926 -0.1816838 -0.1601775 0.056621835 -0.18462224 -0.16242422
0.21862213 0.07449599 -0.020336896 -0.024445906 0.054007195 0.030335829 -0.16563983 0.17099972
0.16900371 0.09119271 0.14528835 -0.14833848 0.027902735 0.09336319 -0.18951082 -0.17399526
0.06425596 0.052434355 0.0012232367 -0.056063365 0.16965112 -0.020287354 -0.17405093 -0.3133183
0.08796809 -0.19651796 0.08357238 0.05768581 0.012878848 -0.19054702 -0.21620105 -0.18199186
0.024827056 -0.08159338 -0.054176327 -0.20845243 0.10595276 0.06864767 -0.15006053 -0.08006771
0.044908296 0.036161747 0.0101732975 0.12996511 -0.17680235 -0.047491953 0.1265647 -0.09616725
0.12449289 0.19921228 0.07416031 0.12907025 -0.059730217 -0.03288262 0.026999947 -0.16594541
-0.26978922 -0.17939545 -0.090215825 0.2132648 0.034614224 0.06611825 0.100890785 0.043608423
0.052790787 0.15718535 -0.13920909 -0.1098623 -0.24557953 -0.22040963 -0.19097328 -0.08331345
0.065842025 -0.116153575 0.14260411 -0.03132088 0.11597654 0.15835316 -0.19981432 0.15719749
0.027333952 -0.1821787 0.06086741 -0.18702284 -0.085095845 -0.117601596 -0.11376833 -0.16635561
-0.2363245 0.00556693 0.11255792 -0.26084465 -0.16855489 0.058612786 -0.06014969 0.008415882
-0.24372146 -0.060324546 0.1585491 -0.117439725 0.17381978 -0.20191245 -0.20054786 0.0022958268
0.1867025 -0.1973168 -0.074258626 -0.19290204 -0.04949272 -0.06301599 -0.19746195 -0.054234166
-0.1521165 -0.011718705 0.09434777 -0.17917632 0.15947102 -0.14272556 0.11911735 -0.17086424
-0.12876011 -0.33234122 -0.14317085 -0.21904741 0.114703834 -0.13126054 -0.13882567 0.10742785
-0.059764486 -0.16445954 0.12280912 -0.08649214 -0.22666262 0.119055904 0.106482126 -0.14767201
0.07844369 -0.1789148 -0.14985453 0.019292269 0.09228524 0.09705258 -0.16807546 0.14238898
0.06576569 -0.22814459 -0.030927137 0.09379634 -0.30414104 -0.13800757 0.16085167 0.17371006

net.4.bias f4 [5]
00000000: aaf2 903d 5adc abbd c238 8c3d 4a93 093d
00000010: 109a 403d
0.070775345 -0.08391638 0.06846763 0.03358773 0.047021925
